data/EdgeNet_14001_ca9bbfb3bb_jduarte.best.pth (torch_old, 58878 bytes, 15 tensors)

batchnorm.weight f4 [8]
0.8894089 -0.07965792 0.0013658806 -0.0056232344 0.14869425 -0.0017046056 0.0034665265 0.004533415
00000000: 4db0 633f b123 a3bd 5907 b33a 1c43 b8bb
00000010: 4e43 183e 136d dfba aa2e 633b 0b8d 943b

batchnorm.bias f4 [8]
-0.061905924 -0.0060838545 -0.21993154 -0.17585924 0.003748207 -0.00613001 -0.21556486 -0.24673775
00000000: 1191 7dbd 125b c7bb bc35 61be 7214 34be
00000010: 7aa4 753b 40de c8bb 09bd 5cbe d2a8 7cbe

batchnorm.running_mean f4 [8]
4.302304 8.088364 0.00080486893 -0.008532781 -0.0048201955 -0.0005687042 -0.0045742467 -0.00094419334
00000000: 79ac 8940 f069 0141 d7fd 523a 14cd 0bbc
00000010: bbf2 9dbb 1815 15ba 90e3 95bb be83 77ba

batchnorm.running_var f4 [8]
10.731244 312.0192 7.439367 3.2324924 1.470947 1.1321459 1.4688168 1.0258799
00000000: 2db3 2b41 7502 9c43 4b0f ee40 28e1 4e40
00000010: fe47 bc3f 28ea 903f 3002 bc3f 0850 833f

inputnet.0.weight f4 [32, 8]
0.07813496 1.1703422 -0.17903595 -0.015403605 0.017615119 -0.18758805 0.19285244 -0.059672266
-0.01705336 0.016508602 0.15152705 -0.11529822 -0.14280637 0.08037245 0.030875156 0.014877419
0.020802155 0.062645964 -0.059871733 0.293516 0.14582856 0.11787747 -0.30301523 -0.14672019
-0.09160981 0.34141895 0.26973727 0.0029891646 -0.110370405 -0.11469216 -0.29539642 0.40257418
-0.28652403 -0.084732994 0.17792177 0.53480494 -0.0027167313 -0.05509075 0.239846 0.3509766
0.032957025 0.08757669 0.16270615 0.22759095 0.06950642 0.14246023 0.24417768 0.088898405
1.7594656 -0.14292589 -0.22443156 -0.115147665 0.036476925 -0.074420966 -0.07592556 -0.022945818
0.97999656 0.29705694 -0.16718909 0.10434668 0.009758899 0.24621086 -0.21980307 0.2880982
-0.11041599 -0.38590443 0.3480534 -0.070353396 -0.032074492 0.069675185 -0.12394156 -0.008461297
0.0831914 0.24235322 -0.010814897 -0.045866378 0.05993635 -0.009322252 0.08241268 0.12989834
0.07240731 0.019516088 -0.049905274 0.21222371 0.03924935 0.061979912 0.62999797 0.35012123
-0.008196449 -0.14220513 -0.068881266 -0.14025152 -0.027140882 -0.09261295 -0.028240237 0.34901878
0.13663824 0.42330334 0.12172634 0.26874736 0.11045254 0.29775587 0.4931666 0.00016894411
-0.14023738 -0.6282104 0.11858862 0.08393589 -0.20548727 0.49357852 -0.06377491 0.11590868
-0.030109677 0.35295594 0.09530703 -0.06705106 -0.3130489 -0.23152931 -0.0338658 0.28772256
0.09293882 1.0252653 0.12434089 -0.11447474 -0.02026716 0.15925695 -0.28899434 0.42747688
0.24256362 -0.36207572 -0.054786097 0.1488886 -0.13469309 0.23239934 -0.6074762 0.059173223
-0.046304848 -0.38579643 -0.2164637 -0.21947305 -0.11688707 -0.088110864 0.4108834 0.1324053
0.04034459 -0.021873755 -0.1507855 0.29791278 0.1993913 0.2867756 0.15358742 0.32437137
-0.008720231 -0.10902758 -0.0248537 0.16183423 0.050432015 0.12308361 0.045906622 0.047933586
-0.07421222 0.30495387 0.15305732 0.535694 0.17940025 0.09613651 -0.01644268 0.5556395
0.3544515 -0.032396864 0.35276124 0.5076598 0.031921376 0.078187846 -0.089273624 0.31298435
0.62335646 -0.21851689 0.10898805 -0.09091715 -0.020834072 -0.024253534 0.51422393 -0.039735846
0.66985816 -0.30806947 0.0054412964 -0.3213379 0.15799065 0.07798129 0.013830818 -0.38556758
0.28288862 0.12774964 0.08620828 0.15107207 0.28120175 -0.03610784 0.15285522 -0.08028928
1.3547487 -0.75796914 -0.07729331 -0.32820484 -0.0687461 0.024051238 -0.19123803 0.079682074
0.5190092 0.31816772 0.3424401 -0.15196097 -0.09427404 0.11992304 0.06552004 0.10324309
-0.46715862 0.2644959 0.07598438 0.46273196 0.49388468 0.060697727 0.010295602 0.1438007
-0.36547616 0.057567447 0.09381481 -0.2784139 -0.37390807 -0.2413338 0.13633952 0.27922544
0.25927645 0.2765526 0.060782176 0.095792584 -0.353241 -0.21536505 -0.09536587 0.23963486
-0.111765675 -0.120398715 0.09466021 0.30303514 0.06319305 -0.2069736 0.23686776 0.59471035
0.17076145 0.693661 0.01833367 -0.021783287 0.047673367 -0.09890324 0.09832163 0.31547478
00000000: 3905 a03d c6cd 953f 3355 37be 675f 7cbc
00000010: 954d 903c 1517 40be 1c7b 453e e86a 74bd
00000020: 7db3 8bbc 0c3d 873c e829 1b3e 7921 ecbd
00000030: d53b 12be 509a a43d e5ed fc3c 6bc0 733c
00000040: 4869 aa3c 874c 803d 103c 75bd bb47 963e
00000050: 1554 153e be69 f13d d024 9bbe d13d 16be
00000060: ed9d bbbd 77ce ae3e 011b 8a3e dce5 433b
00000070: e109 e2bd b9e3 eabd 333e 97be 341e ce3e
00000080: 47b3 92be 7e88 adbd 2031 363e fae8 083f
00000090: 300b 32bb d7a6 61bd 319a 753e 34b3 b33e
000000a0: f2fd 063d 685b b33d 719c 263e 9a0d 693e
000000b0: 6259 8e3d 18e1 113e b709 7a3e 5e10 b63d
000000c0: 2b36 e13f 2a5b 12be 63d1 65be 8ad2 ebbd
000000d0: d468 153d 056a 98bd dc7e 9bbd def8 bbbc
000000e0: 0ee1 7a3f d917 983e 9e33 2bbe b6b3 d53d
000000f0: cae3 1f3c b31e 7c3e 0e14 61be 9b81 933e
00000100: c721 e2bd 4495 c5be 0e34 b23e 7115 90bd
00000110: 8b60 03bd ddb1 8e3d 13d5 fdbd 40a1 0abc
00000120: 4160 aa3d 712b 783e f730 31bc 62de 3bbd
00000130: d17f 753d 5cbc 18bc fbc7 a83d 1204 053e
00000140: 494a 943d 34e0 9f3c 7969 4cbd 2c51 593e
00000150: edc3 203d a6de 7d3d 8c47 213f 1743 b33e
00000160: 664a 06bc 399e 11be 9f11 8dbd 189e 0fbe
00000170: 8e56 debc dcab bdbd 1258 e7bc 97b2 b23e
00000180: e5ea 0b3e 37bb d83e a94b f93d 4199 893e
00000190: f134 e23d 7573 983e 5580 fc3e 9726 3139
000001a0: 639a 0fbe 66d2 20bf 97de f23d 94e6 ab3d
000001b0: 416b 52be 53b6 fc3e 6c9c 82bd 8861 ed3d
000001c0: 92a8 f6bc a4b6 b43e 5530 c33d 1152 89bd
000001d0: f247 a0be 0516 6dbe ddb6 0abd 5f50 933e
000001e0: b556 be3d e53b 833f 70a6 fe3d bc71 eabd
000001f0: 5107 a6bc 4114 233e 11f7 93be 40de da3e
00000200: 9962 783e fd61 b9be 6367 60bd 4176 183e
00000210: fcec 09be 18fa 6d3e 8f83 1bbf 9f5f 723d
00000220: 27aa 3dbd 1c87 c5be a9a8 5dbe 8bbd 60be
00000230: 7d62 efbd 7873 b4bd 4f5f d23e 4195 073e
00000240: 5e40 253d 9730 b3bc 8467 1abe 0688 983e
00000250: 3c2d 4c3e 40d4 923e 0546 1d3e 0114 a63e
00000260: 4ddf 0ebc da49 dfbd fd99 cbbc dfb7 253e
00000270: cd91 4e3d 4213 fc3d 9508 3c3d 0256 443d
00000280: 94fc 97bd ea22 9c3e 0fbb 1c3e 3e23 093f
00000290: b3b4 373e 38e3 c43d cdb2 86bc 643e 0e3f
000002a0: ab7a b53e 93b2 04bd 1f9d b43e fef5 013f
000002b0: fdbf 023d f320 a03d 17d5 b6bd 7c3f a03e
000002c0: 4a94 1f3f e4c2 5fbe 2035 df3d c532 babd
000002d0: 37ac aabc 59af c6bc 2ea4 033f 0ec2 22bd
000002e0: d37b 2b3f 48bb 9dbe e74c b23b 6786 a4be
000002f0: 4dc8 213e a8b4 9f3d a89a 623c 1d69 c5be
00000300: c7d6 903e cdd0 023e f78d b03d a3b2 1a3e
00000310: adf9 8f3e d0e5 13bd 1486 1c3e b56e a4bd
00000320: 6868 ad3f 440a 42bf f44b 9ebd 770a a8be
00000330: c1ca 8cbd 1a07 c53c e7d3 43be 5b30 a33d
00000340: c9dd 043f e1e6 a23e 4f54 af3e a89b 1bbe
00000350: bf12 c1bd 369a f53d 5f2f 863d 1d71 d33d
00000360: 6a2f efbe 026c 873e b39d 9b3d 34eb ec3e
00000370: 74de fc3e 2e9e 783d e2ae 283c 7e40 133e
00000380: b11f bbbe d8cb 6b3d fb21 c03d 448c 8ebe
00000390: e170 bfbe 3520 77be 969c 0b3e a3f6 8e3e
000003a0: e2bf 843e 4d98 8d3e bbf6 783d e72e c43d
000003b0: 01dc b4be a888 5cbe 2e4f c3bd d762 753e
000003c0: 67e5 e4bd 9a93 f6bd 36dd c13d 6c27 9b3e
000003d0: 5c6b 813d e3f0 53be 768d 723e f03e 183f
000003e0: 17dc 2e3e c493 313f 7e30 963c dd72 b2bc
000003f0: 2645 433d c88d cabd da5c c93d e985 a13e

inputnet.0.bias f4 [32]
0.00059731136 -0.20928754 -0.34587255 -0.119541846 -0.34375122 -0.30485278 0.15858822 -0.39666617
-0.26192158 -0.31639618 0.21166192 0.0036701777 0.14812788 -0.026852053 -0.23274627 0.06985725
-0.20747262 -0.024235277 -0.18274465 0.018046819 0.0283122 -0.04057618 -0.38713533 -0.043022037
0.37872627 -0.23720862 -0.14735174 -0.20184933 -0.18451591 0.03788439 -0.18316963 0.21364243
00000000: e394 1c3a 794f 56be 3516 b1be 5bd2 f4bd
00000010: 2900 b0be aa15 9cbe f364 223e d417 cbbe
00000020: 961a 86be aefe a1be e7bd 583e 5d87 703b
00000030: d6ae 173e d6f8 dbbc 0a55 6ebe 5111 8f3d
00000040: b473 54be 0f89 c6bc 6a21 3bbe ecd6 933c
00000050: fdee e73c 3533 26bd 9a36 c6be e037 30bd
00000060: 69e8 c13e d1e6 72be 60e3 16be 97b1 4ebe
00000070: bdf1 3cbe aa2c 1b3d d290 3bbe 15c5 5a3e

inputnet.2.weight f4 [32, 32]
0.068695694 0.15501358 0.17348082 -0.034584455 0.32954124 0.05456286 0.011545861 -0.9375086
0.021458581 -0.0004513082 0.13682231 0.027633455 0.105240144 0.23819776 0.1733993 -0.01964025
-0.013465482 0.23006487 0.18287091 0.12785347 0.0069275773 -0.01859025 -0.20176381 0.013395685
0.0744839 -0.27661276 -0.4484642 0.044713717 0.034935255 -0.21424645 0.20143524 0.02676771
0.0063334564 0.0061680893 -0.20587562 0.08837612 -0.15733396 -0.2759856 -0.36061957 -0.9129257
-0.11093743 -0.03387256 0.11427793 -0.12180762 -0.22717468 -0.124896206 0.08915266 -0.05645983
0.16674717 -0.33217922 -0.014867968 -0.035202734 -0.03840711 0.076373264 0.45181888 0.122690804
0.067203976 0.10461879 0.0024723492 -0.589985 -0.3155007 0.04865455 -0.22189711 0.11915866
0.064687885 0.1337353 -0.12686257 0.32790026 0.13591404 0.059074868 -0.40209797 0.20132843
0.24666035 -0.1531746 -0.01890049 0.011364809 0.11958742 0.14200166 0.19517268 0.21378264
-0.107224174 -0.060923323 -0.13329141 0.023805512 0.25337386 -0.026058968 0.04582329 -0.4166865
0.061646435 0.09615212 -0.08871651 -0.002327277 -0.012801218 0.006576267 -0.030221034 -0.12414328
0.17636926 0.11876 0.26549459 0.06580768 0.21816675 0.3141633 0.20723791 0.32897976
0.109623455 0.0769247 0.12815587 0.123432815 0.044712223 0.28409716 0.23425491 0.13317439
-0.10549794 -0.0009953217 0.1589107 0.24466228 0.11532127 0.067439236 0.4745622 0.01202806
0.0481057 0.06595654 0.16485777 0.5427287 0.5185076 0.0022206053 0.033265997 0.005460641
0.31405023 -0.087297946 0.005347196 -0.033235155 -0.20426387 -0.23089208 -0.08391274 -0.15420209
-0.12086598 -0.12975265 -0.07268761 0.11501589 -0.09691706 0.04949107 0.049893904 0.16683134
-0.008967935 0.036211457 -0.10458505 0.044187058 -0.12727773 0.21394578 -0.42565367 -0.009657098
0.10700822 0.011264897 -0.09489377 -0.10281415 -0.084366634 -0.009352237 -0.04439549 -0.18603535
0.14885873 0.12620606 -0.07483617 0.07604469 0.2193947 0.14530526 0.56620276 -0.24339014
0.2158102 -0.19271903 0.22824089 0.010274132 -0.111196935 0.19265054 0.18159083 0.07023129
0.29310483 -0.021304203 -0.12553026 -0.0016896133 0.16934954 0.28362152 0.19555049 0.32305315
0.038316716 -0.20767651 0.08804182 -0.09323736 0.24118565 0.3055034 -0.067476675 -0.2345988
0.0057546813 -0.19204195 0.057393715 -0.19740595 0.094784066 -0.19068602 0.31897485 -0.033271555
0.038797762 0.10826204 -0.030430583 -0.07195916 -0.0968392 0.3740409 -0.18048601 0.10670669
0.0056869444 -0.13327111 -0.0769849 -0.0219167 -0.12865889 -0.04093334 0.22646657 0.12987584
-0.0054039555 -0.101987354 0.24267648 0.7789027 0.63071334 -0.13311532 -0.070198245 -0.0055956375
0.1413653 -0.064045966 0.23798235 0.1743312 -0.0041824696 -0.07711254 0.12858684 -1.2620494
-0.0659909 0.09479786 0.1980341 -0.046954453 0.13385248 0.07278762 0.13351437 -0.015804704
0.048032332 -0.055644244 0.25116542 0.0805245 0.07142658 0.16952874 0.12312026 0.13573825
0.032965582 -0.26077616 0.0025183759 0.052887008 -0.07211344 0.102051154 0.24579091 -0.09231331
00000000: 54b0 8c3d e1bb 1e3e f5a4 313e 6ea8 0dbd
00000010: a1b9 a83e 4e7d 5f3d da2a 3d3c 9000 70bf
00000020: e8c9 af3c 909d ecb9 261b 0c3e 8e5f e23c
00000030: 2588 d73d 1dea 733e 968f 313e 97e4 a0bc
00000040: 539e 5cbc 2096 6b3e 8342 3b3e 05ec 023e
00000050: bb00 e33b 944a 98bc 2c9b 4ebe 9379 5b3c
00000060: 048b 983d 30a0 8dbe 1a9d e5be bb25 373d
00000070: 4518 0f3d 6c63 5bbe 0a45 4e3e f547 db3c
00000080: e288 cf3b af1d ca3b 0fd1 52be 8afe b43d
00000090: 271c 21be fc4d 8dbe 21a3 b8be 80b5 69bf
000000a0: 2a33 e3bd f4bd 0abd 8c0a ea3d 4676 f9bd
000000b0: 7ba0 68be 95c9 ffbd ab95 b63d 6c42 67bd
000000c0: c5bf 2a3e 6513 aabe c798 73bc be30 10bd
000000d0: c650 1dbd 9669 9c3d ce54 e73e 5145 fb3d
000000e0: 3da2 893d 6042 d63d 2307 223b 4209 17bf
000000f0: 4f89 a1be fe49 473d ff38 63be 7509 f43d
00000100: 157b 843d e8f1 083e 43e8 01be 8be2 a73e
00000110: 0d2d 0b3e 7df8 713d c9df cdbe 0a29 4e3e
00000120: 8894 7c3e cdd9 1cbe 33d5 9abc 7733 3a3c
00000130: 40ea f43d e268 113e 59db 473e d6e9 5a3e
00000140: 5998 dbbd bc8a 79bd 8b7d 08be c703 c33c
00000150: 38ba 813e 9e79 d5bc 34b1 3b3d ef57 d5be
00000160: f980 7c3d 67eb c43d 00b1 b5bd 3b85 18bb
00000170: 33bc 51bc ba7d d73b 1a92 f7bc d53e febd
00000180: 259a 343e 7138 f33d e8ee 873e 2dc6 863d
00000190: 1b67 5f3e 03da a03e 2d36 543e 0970 a83e
000001a0: 4382 e03d b28a 9d3d 4b3b 033e 58ca fc3d
000001b0: 2a24 373d 2f75 913e 85e0 6f3e de5e 083e
000001c0: 4e0f d8bd 7475 82ba 7db9 223e c088 7a3e
000001d0: 8f2d ec3d 951d 8a3d d1f9 f23e 5711 453c
000001e0: 7c0a 453d 3914 873d 7ad0 283e 45f0 0a3f
000001f0: eabc 043f 9387 113b ed41 083d 2def b23b
00000200: 31cb a03e 44c9 b2bd 8837 af3b 9621 08bd
00000210: 8c2a 51be f96e 6cbe 71da abbd 27e7 1dbe
00000220: 9588 f7bd e1dd 04be 3edd 94bd 738d eb3d
00000230: 747c c6bd 26b7 4a3d 8d5d 4c3d d6d5 2a3e
00000240: 3fee 12bc 7752 143d b030 d6bd 7dfd 343d
00000250: 1855 02be 9a14 5b3e 47ef d9be ce38 1ebc
00000260: 2027 db3d 6790 383c aa57 c2bd 3a90 d2bd
00000270: 6ac8 acbd 203a 19bc 0cd8 35bd 0d80 3ebe
00000280: 6c6e 183e 293c 013e b543 99bd 52bd 9b3d
00000290: 01a9 603e e7ca 143e aaf2 103f 443b 79be
000002a0: 59fd 5c3e 2358 45be fbb7 693e d554 283c
000002b0: 38bb e3bd 2f46 453e f2f2 393e 6cd5 8f3d
000002c0: d611 963e 2786 aebc 018b 00be 0476 ddba
000002d0: f769 2d3e d736 913e 633e 483e 3967 a53e
000002e0: fdf1 1c3d 27a9 54be 454f b43d 3bf3 bebd
000002f0: 5ff9 763e f16a 9c3e 3631 8abd ab3a 70be
00000300: c491 bc3b a5a6 44be ac15 6b3d c924 4abe
00000310: 261e c23d 3243 43be ac50 a33e c147 08bd
00000320: 67ea 1e3d 7db8 dd3d 8f49 f9bc 535f 93bd
00000330: a153 c6bd 4a82 bf3e 53d1 38be 0989 da3d
00000340: 8c59 ba3b 3978 08be 42aa 9dbd a78a b3bc
00000350: 28bf 03be b8a9 27bd dae6 673e 2cfe 043e
00000360: aa13 b1bb bfde d0bd 2f80 783e 2b66 473f
00000370: 6e76 213f 624f 08be 19c4 8fbd 9c5b b7bb
00000380: 11c2 103e 882a 83bd a5b1 733e e183 323e
00000390: 190d 89bb 2eed 9dbd 45ac 033e d68a a1bf
000003a0: 3d26 87bd 6125 c23d 73c9 4a3e 5053 40bd
000003b0: a010 093e ad11 953d feb7 083e de78 81bc
000003c0: 8dbd 443d 38eb 63bd c198 803e 07ea a43d
000003d0: 1948 923d f198 2d3e 7a26 fc3d f8fe 0a3e
000003e0: eb06 073d 7484 85be 560b 253b 0ca0 583d
000003f0: 36b0 93bd 3200 d13d 9db0 7b3e c30e bdbd

inputnet.2.bias f4 [32]
-0.022403631 0.10433499 -0.013907875 -0.12960063 0.012475715 0.18464439 -0.16486387 -0.0039544604
-0.0065141283 0.0028108214 -0.018416855 0.0304851 -0.06932658 0.0040693902 0.036442924 -0.002253482
-0.032688837 -0.011170459 0.22518462 0.0071393056 0.005145879 0.018539697 -0.01851815 0.09412864
0.006642514 -0.0042241924 -0.09212739 0.010742542 -0.013128342 -0.044523735 0.02613524 0.095573865
00000000: d287 b7bc 95ad d53d dbdd 63bc 07b6 04be
00000010: f166 4c3c 6b13 3d3e 13d2 28be 6b94 81bb
00000020: 7874 d5bb c235 383b f2de 96bc e3bb f93c
00000030: 18fb 8dbd 8558 853b 2d45 153d 27af 13bb
00000040: bbe4 05bd 4d04 37bc cc96 663e d6f0 e93b
00000050: c39e a83b 90e0 973c 60b3 97bc 84c6 c03d
00000060: 72a9 d93b 186b 8abb 49ad bcbd 7d01 303c
00000070: 4218 57bc 855e 36bd 9219 d63c 3bbc c33d

edgenetwork.0.weight f4 [64, 81]
-0.023898803 -0.03084893 -0.05405272 0.05662605 0.09033557 0.0121265 0.04323079 0.057659544
0.009091356 0.14855073 0.069111325 -0.020007098 0.047161713 -0.08140832 0.10409547 -0.05724975
-0.22454165 -0.033589758 0.04470751 0.15880261 -0.19995166 0.036635462 0.067975 -0.2755279
-0.031903204 -0.035931922 -0.039615177 0.09688753 0.17000704 0.08811851 -0.13990863 -0.06522089
0.4408187 0.41562065 0.3243436 0.34072262 -0.29717985 -0.023842726 0.27992392 0.35992107
0.15198731 -0.31567588 -0.12188386 0.0538389 0.10526639 0.08819917 -0.1933171 0.2694464
0.011159731 0.1324577 -0.12034444 0.02924473 -0.049423654 -0.122820824 0.3516703 -0.19182274
-0.23521654 -0.30403024 -0.005063223 -0.055897553 -0.152 0.13720629 0.2009226 0.019130988
0.022549273 -0.10631768 -0.14845434 0.21119966 0.14898364 0.17238902 0.0015453997 -0.11144664
-0.25417456 0.22374514 0.49160853 0.2793415 -0.22703 -0.047789697 0.19593398 0.21543077
1.3260511 0.12468578 -0.24931633 -0.15432988 0.0059531517 -0.11474619 0.13786381 -0.05811443
0.093137525 -0.007910237 -0.080623366 0.053056005 0.21641093 -0.017026061 0.2434259 0.035257366
-0.042511206 -0.24689949 -0.27736166 0.18500221 0.01501995 -0.20591159 -0.00914909 0.058866967
-0.22916919 -0.08210833 -0.11777358 -0.33813015 0.36935487 -0.05161284 0.045266185 0.05308273
-0.08794978 2.9616296 -0.5269803 -1.0229409 -0.9903376 0.1571489 0.8438897 -0.9521236
-0.7022502 0.05761843 -0.30738252 -0.50938296 0.30414304 -0.15326801 0.31958276 -1.0013193
0.61197627 0.5591649 -0.24488032 -0.93483406 0.1777537 -0.24953784 0.16012377 0.2442127
0.33825082 0.008310304 -0.5647783 0.09117889 0.24326214 -0.33097088 -0.17231704 -0.28904328
-0.41219363 0.30484235 -0.1403198 0.21708053 1.1322196 0.08163432 0.61884046 0.32237032
0.04495923 0.32444674 0.32760304 -0.94472194 -0.89664966 -3.8370333 -0.37333846 -1.1574267
-1.5540171 0.98005414 0.11141097 0.09873014 0.18828432 -0.02365982 -0.062987424 -0.034409754
0.027988864 -0.042432036 -0.15212318 -0.048316605 0.19368902 -0.038042415 -0.04153017 -0.185528
0.12368463 -0.016514545 -0.03035054 -0.011171171 0.027417136 -0.04646768 0.02199376 0.055691063
0.028929846 0.08912331 0.03692836 -0.0535045 -0.12967554 -0.20302476 0.053808846 -0.11279208
-0.02181272 0.008905735 0.21986157 -0.13447972 0.52198744 0.27312928 -0.08196627 0.046144325
0.26993516 0.15026511 0.18908456 0.08789595 0.20439559 -0.12933296 -0.047665063 -0.14970072
-0.006135699 0.013958625 -0.08851854 0.007276083 0.095293075 -0.07463653 -0.16747631 -0.15991943
0.055647254 0.11879189 0.0056087016 -0.017202653 0.042888448 -0.21313061 -0.17244872 -0.051094327
0.027432572 0.050090887 0.10978581 0.01712495 -0.18877171 -0.17656924 0.004851898 -0.18247156
0.0723859 0.074032106 0.43102378 0.030681143 0.4955777 0.3233839 -0.031507492 0.00060951535
0.22325005 0.29041946 4.7513294 0.11768732 0.19514279 -0.0050672963 -0.2106213 -0.16148993
-0.31533128 0.35599104 0.10544508 0.09502342 -0.08507625 -0.011482541 -0.20620298 -0.23294258
00000000: 6cc7 c3bc e5b6 fcbc 6366 5dbd b8f0 673d
00000010: db01 b93d 3aae 463c c512 313d 6a2c 6c3d
00000020: e9f3 143c af1d 183e 3d8a 8d3d ede5 a3bc
00000030: a42c 413d 68b9 a6bd 0130 d53d b77e 6abd
00000040: 3fee 65be 6a95 09bd 391f 373d 279d 223e
00000050: 21c0 4cbe 110f 163d 7a36 8b3d fe11 8dbe
00000060: efac 02bd 5a2d 13bd 8643 22bd f86c c63d
00000070: 5316 2e3e 7a77 b43d 3544 0fbe 8892 85bd
00000080: fdb2 e13e 3bcc d43e 5d10 a63e 3273 ae3e
00000090: f527 98be d251 c3bc 3052 8f3e 9347 b83e
000000a0: 90a2 1b3e 45a0 a1be 3f9e f9bd 2e86 5c3d
000000b0: e895 d73d c4a1 b43d ebf4 45be e1f4 893e
000000c0: 4ed7 363c fea2 073e 2577 f6bd a592 ef3c
000000d0: 7570 4abd 7c89 fbbd 210e b43e 2e6d 44be
000000e0: 9bdc 70be daa9 9bbe 65e9 a5bb d5f4 64bd
000000f0: e3a5 1bbe ce7f 0c3e a7be 4d3e 97b8 9c3c
00000100: 41b9 b83c 15bd d9bd 6a04 18be b944 583e
00000110: 2b8f 183e bf86 303e 028f ca3a 233e e4bd
00000120: 2b23 82be 721d 653e 1db4 fb3e d905 8f3e
00000130: 8d7a 68be 21bf 43bd eba2 483e e299 5c3e
00000140: 0bbc a93f 425b ff3d c84c 7fbe a708 1ebe
00000150: a812 c33b 0d00 ebbd 2c2c 0d3e 6609 6ebd
00000160: e3be be3d f099 01bc dd1d a5bd 4151 593d
00000170: d49a 5d3e 3d7a 8bbc a444 793e 076a 103d
00000180: 3b20 2ebd 38d3 7cbe 5902 8ebe 3871 3d3e
00000190: 3d16 763c 7dda 52be 11e6 15bc 7d1e 713d
000001a0: 54ab 6abe 6a28 a8bd 4633 f1bd 651f adbe
000001b0: 151c bd3e fc67 53bd 0969 393d 476d 593d
000001c0: 041f b4bd 578b 3d40 2ee8 06bf baef 82bf
000001d0: c486 7dbf a4eb 203e 2809 583f 5fbe 73bf
000001e0: abc6 33bf 4e01 6c3d 3e61 9dbe ec66 02bf
000001f0: a3b8 9b3e 4af2 1cbe 5aa0 a33e 3b2b 80bf
00000200: 7aaa 1c3f 6e25 0f3f e8c1 7abe 4951 6fbf
00000210: 1105 363e d986 7fbe 7cf7 233e e512 7a3e
00000220: 362f ad3e f127 083c 5095 10bf ffbb ba3d
00000230: b619 793e 0475 a9be e173 30be 7bfd 93be
00000240: 0b0b d3be 4c14 9c3e feaf 0fbe 5c4a 5e3e
00000250: 92ec 903f e52f a73d 546c 1e3f b90d a53e
00000260: 2b27 383d e21d a63e 96bb a73e 4cd9 71bf
00000270: d58a 65bf f491 75c0 3826 bfbe 8f26 94bf
00000280: 08ea c6bf d4e4 7a3f 6f2b e43d 0733 ca3d
00000290: 9bcd 403e 3dd2 c1bc 8dff 80bd 3ef1 0cbd
000002a0: e748 e53c 37cd 2dbd 2ec6 1bbe a2e7 45bd
000002b0: 6a56 463e 5dd2 1bbd 8a1b 2abd 0dfb 3dbe
000002c0: 5e4e fd3d 8349 87bc b2a1 f8bc 4a07 37bc
000002d0: e799 e03c e554 3ebd 422c b43c 501c 643d
000002e0: 49fe ec3c 4886 b63d 3142 173d 8927 5bbd
000002f0: aac9 04be b9e5 4fbe aa66 5c3d 89ff e6bd
00000300: 97b0 b2bc 5ce9 113c 6423 613e 0db5 09be
00000310: f8a0 053f 9ad7 8b3e efdd a7bd d501 3d3d
00000320: f134 8a3e 19df 193e 629f 413e cb02 b43d
00000330: 144d 513e dc6f 04be 713c 43bd 254b 19be
00000340: f90d c9bb b7b2 643c 3549 b5bd 356c ee3b
00000350: 0429 c33d 09db 98bd e97e 2bbe ebc1 23be
00000360: 60ee 633d 2a49 f33d 33c9 b73b 94ec 8cbc
00000370: ccab 2f3d e93e 5abe 6696 30be 4948 51bd
00000380: 46ba e03c 1a2c 4d3d 62d7 e03d a049 8c3c
00000390: 5f4d 41be 91ce 34be acfc 9e3b d3d9 3abe
000003a0: 0f3f 943d 259e 973d 26af dc3e 0557 fb3c
000003b0: 5cbc fd3e 9392 a53e 000e 01bd e2c7 1f3a
000003c0: a99b 643e dcb1 943e e40a 9840 0d06 f13d
000003d0: 83d3 473e 900b a6bb 1cad 57be 9e5d 25be
000003e0: 1a73 a1be 7544 b63e 97f3 d73d a49b c23d
000003f0: 753c aebd 4521 3cbc e026 53be 8088 6ebe

edgenetwork.0.bias f4 [64]
-0.51101047 1.0842556 -0.510366 0.23904733 -0.053258274 1.0885655 0.41886094 -0.23267128
-0.37994918 0.20383854 0.95378417 -0.2734804 -0.532487 -0.42798892 0.25754577 -0.4170809
-0.16140741 0.45045593 -0.15768425 0.5133768 0.65353507 0.13589804 0.5433902 -0.1072721
-0.60646236 -0.4308737 -0.2522882 0.1598852 0.020336507 -0.36718372 -0.373025 -0.83751464
-0.22173603 0.77186394 1.6935195 0.7664571 -0.58193743 -0.077165365 -0.59218544 0.6372982
-0.18282667 -0.0194539 -1.3390287 0.02103458 -0.33172223 -0.28702444 -0.40780324 -1.4690452
0.3728261 -0.18025395 -0.36422104 -0.20554928 -0.36962384 1.4634167 1.9760867 0.6660828
0.81366765 -0.36362323 0.4804943 0.7525718 0.5896407 -0.33737558 -0.43530738 0.4359869
00000000: 95d1 02bf e3c8 8a3f 59a7 02bf d3c8 743e
00000010: 5925 5abd 1d56 8b3f f174 d63e 6141 6ebe
00000020: b388 c2be 0dbb 503e 332b 743f 9f05 8cbe
00000030: 1151 08bf 5d21 dbbe 0add 833e a18b d5be
00000040: fc47 25be 29a2 e63e fb77 21be a96c 033f
00000050: 134e 273f db28 0b3e 9f1b 0b3f 7ab1 dbbd
00000060: 1e41 1bbf 7a9b dcbe eb2b 81be f2b8 233e
00000070: bf98 a63c 81ff bbbe 22fd bebe 5c67 56bf
00000080: c50e 63be e098 453f 3fc5 d83f 8836 443f
00000090: daf9 14bf e008 9ebd 7799 17bf fa25 233f
000000a0: ea36 3bbe c95d 9fbc 4b65 abbf b650 ac3c
000000b0: 7fd7 a9be def4 92be 96cb d0be ac09 bcbf
000000c0: 10e3 be3e 7e94 38be 2e7b babe 837b 52be
000000d0: 563f bdbe 3d51 bb3f 69f0 fc3f 6784 2a3f
000000e0: 864c 503f d32c babe 5903 f63e 8ca8 403f
000000f0: b1f2 163f 7ebc acbe 9ce0 debe ad39 df3e

edgenetwork.2.weight f4 [1, 64]
-0.118979394 0.71698207 -1.0640432 0.8868504 0.9975423 1.1484991 1.8011047 0.038750704
-1.1573318 0.056583628 1.5633407 -0.7273331 -0.8328244 -0.33039868 0.38038272 -0.27452496
-0.17436504 1.330747 -0.12870081 1.4036554 1.4856023 0.3192591 0.4913698 -0.3247748
-0.37767974 -0.54193205 -0.14567977 -0.30212307 -0.18656366 -0.7120185 -0.15802242 -0.28826803
-0.15873954 0.90033954 -1.4973266 0.81350625 -0.9003276 -0.030865196 -0.5586443 0.83627623
-0.17137407 1.6001534 4.012655 -0.1537374 -0.16940372 -0.54350364 -0.3098042 0.3749245
0.7490115 -0.18949972 -0.2630185 -0.12063257 -0.7353737 -1.2688466 -1.3674728 1.2274234
1.402273 -0.20826127 1.7806377 1.2336483 1.3045036 -0.17540666 -0.162745 0.9060277
00000000: 78ab f3bd 238c 373f 9132 88bf a108 633f
00000010: ef5e 7f3f 0502 933f 998a e63f 0fb9 1e3d
00000020: 7323 94bf 3cc4 673d 8c1b c83f 8132 3abf
00000030: fb33 55bf 042a a9be 86c1 c23e 898e 8cbe
00000040: c08c 32be eb55 aa3f 25ca 03be fbaa b33f
00000050: 3728 be3f ee75 a33e d394 fb3e e248 a6be
00000060: 3d5f c1be 0fbc 0abf 142d 15be e0af 9abe
00000070: 8b0a 3fbe d846 36bf a1d0 21be de97 93be
00000080: 9e8c 22be a77c 663f 66a8 bfbf f241 503f
00000090: df7b 66bf 02d9 fcbc 5003 0fbf 3316 563f
000000a0: af7c 2fbe d4d1 cc3f ab67 8040 566d 1dbe
000000b0: 2b78 2dbe 0e23 0bbf a89e 9ebe 1bf6 bf3e
000000c0: 38bf 3f3f 370c 42be 5caa 86be 350e f7bd
000000d0: 7341 3cbf 9169 a2bf 5909 afbf 361c 9d3f
000000e0: af7d b33f 7142 55be f0eb e33f 30e8 9d3f
000000f0: f9f9 a63f ce9d 33be a0a6 26be 6ef1 673f

nodenetwork.nn.0.weight f4 [64, 81]
-0.36821386 -0.17186718 0.15933406 -0.21359777 0.19186467 -0.33523268 0.26027358 -0.288429
-0.20783867 0.16441098 0.05877796 0.03767484 0.39949194 0.07212598 -0.21202 -0.035753433
0.2175822 0.2836911 -0.47985116 0.072341956 -0.37601146 0.036003765 -0.112443894 0.13980828
-0.3373224 -0.14735182 -0.37151074 0.26853254 0.04158739 -0.2908325 0.36613813 -0.18973391
0.5086304 0.1598547 0.4173924 0.49214482 -0.37221822 0.12473481 0.48158333 0.4511744
-0.016382353 0.2760715 -0.08100506 -0.25477546 0.29098424 0.22203235 0.26186058 -0.1579601
-0.057246163 0.07374671 0.2285227 -0.33425677 0.22610137 -0.14696117 -0.10673111 -0.03137293
-0.02303574 0.12750386 -0.14585389 0.096494325 -0.11391771 -0.11015965 0.16017671 -0.3716462
-0.13597906 -0.03361487 0.008825511 -0.19279769 0.27997476 0.40198126 -0.010782071 -0.2184935
0.19707185 0.26450488 0.013570946 0.07767188 -0.039153267 -0.16737674 -0.16391048 0.008863681
-0.520955 0.08132174 0.11010049 -0.122753754 0.043451473 0.11056305 -0.09727513 0.11597226
-0.10981435 -0.14058907 0.07127466 0.071965 -0.0050208797 0.053578272 0.07448634 -0.051345006
0.004155474 0.09814916 0.07403643 -0.072238244 -0.17410293 0.049147736 0.011485059 -0.09520052
-0.08780485 -0.029128764 0.0988897 -0.059419155 0.06789146 -0.027127292 -0.019823661 0.013342094
-0.195562 -0.032226592 0.013183437 -0.021683017 0.009124987 0.0049785906 -0.016090097 -0.008882931
0.12957475 -0.012986963 -0.060551528 0.049424462 -0.018026477 -0.04803778 0.117208205 0.16880469
0.080909595 -0.13268255 0.10768299 -0.015653385 -0.027149096 -0.10130157 -0.00016531975 -0.027367175
-0.004608126 -0.02006865 -0.0068702977 0.033926018 0.059163373 0.042671736 -0.10245485 -0.044079132
-0.019728683 0.0001085243 -0.05998514 -0.016061626 0.003774216 0.041986022 -0.07758741 -0.04340678
-0.1294839 -0.04088007 0.04486459 -0.056956157 0.017290367 0.03072136 -0.06343906 0.053513553
0.0008143303 -0.0743636 0.0058398466 0.18172204 0.1009834 -0.021576438 -0.05950501 -0.026529217
0.098921336 0.06668299 -0.13167372 0.1537904 0.21543409 0.0009077116 0.10191476 0.03239726
-0.22556664 -0.025943702 0.024544694 -0.047157407 -0.21701634 -0.0013983218 -0.045384258 -0.019193403
-0.074524075 -0.041684125 -0.075803265 0.09634058 0.024695441 0.014389159 0.061730877 -0.04784087
-0.09230356 -0.025883246 0.007189472 0.005295773 0.041975453 -0.019855509 -0.044581868 -0.066512175
-0.05272624 0.046577137 0.09033927 0.11881996 0.035815503 0.12906499 0.1420316 0.18945773
0.04544954 0.005641394 -0.09126195 0.15979502 -0.037116166 -0.0731637 -0.18224289 0.2618217
0.063479684 -0.041977488 -0.016533727 -0.05106133 0.033884928 -0.08040616 0.0006773597 -0.17848709
-0.05661575 0.04236913 0.046228446 -0.21682033 -0.026728772 0.10996184 0.07511038 0.069575444
0.06597071 -0.03324781 0.12233961 0.053918175 0.01616228 -0.040430557 0.017152531 0.048850697
-0.0014996548 -0.001273673 -0.18423182 -0.028024996 0.04467717 -0.082978986 -0.12808868 0.04483838
-0.10512738 0.09555686 -0.07216511 -0.17463431 0.19429852 0.26504672 0.002049762 -0.035402227
00000000: 8786 bcbe f3fd 2fbe 7828 233e 60b9 5abe
00000010: 2c78 443e 9ea3 abbe 9442 853e f7ac 93be
00000020: a9d3 54be 5a5b 283e 28c1 703d ef50 1a3d
00000030: 358a cc3e c9b6 933d c51b 59be 3172 12bd
00000040: decd 5e3e f63f 913e 0daf f5be 0528 943d
00000050: 9384 c0be af78 133d fc48 e6bd e729 0f3e
00000060: 86b5 acbe 65e3 16be a836 bebe 197d 893e
00000070: 8a57 2a3d ffe7 94be 7576 bb3e 9b49 42be
00000080: 9a35 023f f3b0 233e 75b4 d53e 68fa fb3e
00000090: 6393 bebe f774 ff3d 1792 f63e 5500 e73e
000000a0: 4934 86bc 3e59 8d3e fbe5 a5bd ee71 82be
000000b0: e3fb 943e 735c 633e 9712 863e 4bc0 21be
000000c0: f47a 6abd 8408 973d db01 6a3e b423 abbe
000000d0: 1e87 673e fd7c 16be d795 dabd e780 00bd
000000e0: 73b5 bcbc 5f90 023e b95a 15be d19e c53d
000000f0: b04d e9bd 629b e1bd 5d05 243e 6948 bebe
00000100: 183e 0bbe bfaf 09bd e098 103c c26c 45be
00000110: da58 8f3e 7dd0 cd3e 49a7 30bc c3bc 5fbe
00000120: 34cd 493e 2f6d 873e ac58 5e3c 6f12 9f3d
00000130: 2d5f 20bd cf64 2bbe 26d8 27be f938 113c
00000140: 4f5d 05bf 038c a63d 5e7c e13d 5266 fbbd
00000150: 2cfa 313d e16e e23d 2f38 c7bd dd82 ed3d
00000160: 59e6 e0bd 95f6 0fbe 73f8 913d 6362 933d
00000170: 3186 a4bb e474 5b3d 4b8c 983d 244f 52bd
00000180: a42a 883b 6d02 c93d 69a0 973d a5f1 93bd
00000190: 0a48 32be 234f 493d d42b 3c3c 7df8 c2bd
000001a0: 07d3 b3bd 729f eebc af86 ca3d 8061 73bd
000001b0: ae0a 8b3d 0e3a debc 3b65 a2bc cc98 5a3c
000001c0: 6841 48be 0800 04bd 58ff 573c 95a0 b1bc
000001d0: f880 153c 7223 a33b 61cf 83bc b789 11bc
000001e0: 3eaf 043e 45c7 54bc e104 78bd 4e71 4a3d
000001f0: 43ac 93bc 43c3 44bd db0a f03d 23db 2c3e
00000200: eeb3 a53d efdd 07be e688 dc3d 873b 80bc
00000210: c867 debc 3377 cfbd af59 2db9 2031 e0bc
00000220: c3ff 96bb 0267 a4bc 3c20 e1bb 02f6 0a3d
00000230: 4b55 723d 8fc8 2e3d d9d3 d1bd 528c 34bd
00000240: 0c9e a1bc 8a97 e338 fab2 75bd ac93 83bc
00000250: d658 773b 89f9 2b3d 26e6 9ebd 4fcb 31bd
00000260: 6d97 04be dc71 27bd efc3 373d dc4a 69bd
00000270: 87a4 8d3c 5dab fb3c 56ec 81bd 0731 5b3d
00000280: c878 553a f14b 98bd 2f5c bf3b 5815 3a3e
00000290: 63d0 ce3d 12c1 b0bc 86bb 73bd cd53 d9bc
000002a0: 4597 ca3d 1791 883d 7ad5 06be 3b7b 1d3e
000002b0: c19a 5c3e 7ff3 6d3a b0b8 d03d fdb2 043d
000002c0: f1fa 66be e387 d4bc f411 c93c 2028 41bd
000002d0: 8839 5ebe e547 b7ba d8e4 39bd 7c3b 9dbc
000002e0: 14a0 98bd f9bc 2abd be3e 9bbd 364e c53d
000002f0: 184e ca3c 82c0 6b3c 84d9 7c3d caf4 43bd
00000300: a609 bdbd 1a09 d4bc aa95 eb3b 2a88 ad3b
00000310: 74ee 2b3d 05a8 a2bc 7a9b 36bd 8937 88bd
00000320: 78f7 57bd abc7 3e3d cc03 b93d e157 f33d
00000330: 47b3 123d 9d29 043e bb70 113e 3501 423e
00000340: 4c29 3a3d 71db b83b 8ce7 babd 4ea1 233e
00000350: 1f07 18bd dad6 95bd e19d 3abe 7e0d 863e
00000360: a301 823d 96f0 2bbd bd71 87bc af25 51bd
00000370: ecca 0a3d fcab a4bd d790 313a 52c5 36be
00000380: ebe5 67bd 418b 2d3d 0a5a 3d3d 2606 5ebe
00000390: 4cf6 dabc ac33 e13d 79d3 993d 927d 8e3d
000003a0: a71b 873d db2e 08bd 308d fa3d 4ed9 5c3d
000003b0: c266 843c 839a 25bd 7783 8c3c ab17 483d
000003c0: 1190 c4ba 60f1 a6ba 44a7 3cbe ad94 e5bc
000003d0: 69ff 363d e3f0 a9bd ae29 03be 73a8 373d
000003e0: 064d d7bd 51b3 c33d 4dcb 93bd 56d3 32be
000003f0: 31f6 463e 34b4 873e 4d55 063b ed01 11bd

nodenetwork.nn.0.bias f4 [64]
-0.6838715 0.0005713879 -0.14927104 -0.1638875 -0.0746335 -0.12512043 -0.010045507 -0.29587585
-0.15057448 -0.040608138 -0.19465846 -0.15539968 -0.084990956 -0.21092165 -0.15495788 -0.16097811
-0.16933464 -0.10067138 -0.527837 -0.35747957 -0.00367216 -0.10236051 -0.1042367 -0.11840949
-0.2498092 -0.1236555 -0.086534955 -0.085382484 -0.057886597 -0.04170293 -0.05380857 -0.10909747
-0.20086415 -0.115474544 0.038618058 -0.12264873 -0.09792955 -0.18196875 -0.012234617 -0.38962352
-0.038534347 -0.059816524 -0.12943913 -0.14033228 -0.0862505 -0.67615014 -0.19167727 -0.19231321
-0.13901651 -0.027850784 -0.15571302 -0.15332107 -0.10978308 -0.27640304 -0.17318377 -0.27092546
-0.20314525 -0.11263343 -0.24670921 -0.081771664 -0.100969 0.07574725 -0.086351305 -0.3636271
00000000: 3412 2fbf 31c9 153a 82da 18be 20d2 27be
00000010: 73d9 98bd 921f 00be e995 24bc 0a7d 97be
00000020: 3230 1abe b854 26bd 8c54 47be 1821 1fbe
00000030: bd0f aebd d8fb 57be 47ad 1ebe 72d7 24be
00000040: 0f66 2dbe cc2c cebd 5320 07bf 9007 b7be
00000050: 9fa8 70bb 63a2 d1bd 0d7a d5bd ad80 f2bd
00000060: fccd 7fbe 183f fdbd 3d39 b1bd 03dd aebd
00000070: 7f1a 6dbd b1d0 2abd 6066 5cbd 7f6e dfbd
00000080: 55af 4dbe eb7d ecbd f82d 1e3d 422f fbbd
00000090: 4a8f c8bd 0456 3abe b473 48bc bc7c c7be
000000a0: 31d6 1dbd 2c02 75bd b18b 04be 44b3 0fbe
000000b0: 1aa4 b0bd 2d18 2dbf 0c47 44be c1ed 44be
000000c0: 585a 0ebe 5427 e4bc 3c73 1fbe 3300 1dbe
000000d0: f4d5 e0bd b384 8dbe 1657 31be beb6 8abe
000000e0: 4f05 50be 5bac e6bd 57a1 7cbe e777 a7bd
000000f0: d6c8 cebd 6021 9b3d f4d8 b0bd 552d babe

nodenetwork.nn.2.weight f4 [32, 64]
0.0020917736 -0.10602404 0.0069640167 -0.14935337 -0.007179313 0.027828727 0.08428999 0.20027702
-0.11490249 -0.014806071 0.12679586 0.24804579 -0.004135031 0.120859526 0.0062782667 0.112461604
0.004326985 0.13590868 -0.5242173 -0.4608149 -0.120439276 -0.11344862 -0.016903032 -0.06573619
-0.008026783 0.23503105 0.14272952 0.07537346 -0.0050450466 -0.19161947 0.07878353 -0.026307391
-0.022857688 0.17002055 -0.023965484 -0.12724137 -0.034739915 -0.06574455 -0.028270233 -0.008445246
-0.017290838 -0.55702406 -0.070727535 -0.048825316 -0.19621107 0.31958783 0.16957356 0.23262124
-0.030951858 0.10501945 0.008485651 0.12179316 -0.028028533 -0.10017281 -0.046759497 -0.088112995
-0.048685987 0.17816897 0.18936501 -0.0014446825 -0.033393946 -1.34567 0.21449652 -0.1019968
-0.6144038 -0.077643596 -0.055317555 0.15002082 -0.16225848 0.01601296 -0.020211112 0.13414526
0.012882049 -0.04462751 0.023197418 -0.24460551 -0.0836443 -0.00058914325 0.09923283 0.15973778
0.1656362 -0.034695152 -0.569931 0.24278247 0.090157114 0.0075757466 0.24706315 -0.0794139
0.13019839 0.17948127 0.10458535 -0.06259231 0.11358643 -0.13646282 0.17458366 -0.0041495566
-0.035892364 0.07794015 0.05287777 -0.037719686 0.02700406 -0.015750103 -0.09037275 -0.036879558
0.009957743 -0.5830639 -0.02096643 0.026069606 -0.050369777 -0.4247403 0.08213428 0.17244671
-0.07867704 0.11369678 -0.09858838 0.14984986 -0.11031299 0.16740043 0.040506244 0.04878523
0.29270998 0.10563173 0.11363969 0.12226442 -0.043191675 -1.3539076 0.14685288 -0.044537276
0.30088967 0.02773372 0.1978472 0.15065579 0.125721 -0.006027717 0.088966265 1.6992825
-0.07447045 0.05553943 -0.035012428 0.04412518 0.035030022 0.06985991 -0.061400294 -0.004204354
0.11890021 -0.07964318 1.3098923 0.07251176 0.059174057 0.16362315 0.19908018 0.11885941
0.19287212 -0.2213496 -0.03233582 0.06800088 0.015160404 -0.17177205 0.005101631 -0.021709038
-0.003999765 0.0108945705 0.06943649 -0.031453673 -0.020441726 0.117746435 0.03329727 -0.08216015
0.08350017 0.23656318 -0.028544184 -0.058638345 0.0856914 0.00086820975 0.13975085 0.1290334
-0.040035423 0.043489546 -0.027688177 -0.009421476 0.009161456 -0.07411556 -0.01917202 -0.031373836
0.04907046 0.21539919 0.09957983 0.1541429 0.14871337 -0.005704922 0.13191222 0.13228942
0.21453327 -0.036571357 -0.090907365 -0.03236999 0.2147639 0.023483196 0.11381574 -0.37704325
0.040073372 -0.005693082 -0.1799575 0.29177877 0.097218566 0.018395819 0.10842558 -0.21711989
-0.0070906226 -0.1279292 -0.016478654 -0.3051791 0.14933325 -0.15694669 -0.02830373 0.018312896
-0.16762008 -0.11848584 -0.09209282 -0.025458459 -0.22850116 0.10641987 -0.07240237 -0.04181016
0.063302115 -0.25486314 -0.076863654 -0.06958025 -0.15996204 0.04376357 0.08683497 0.2750683
-0.054936916 0.5632594 0.08087054 -0.042209215 -0.11807967 -0.065392174 -0.06416274 -0.1073024
0.11082842 -0.048216004 0.017926304 -0.1797812 -0.045625553 -0.138625 -0.04818095 0.035903294
0.0865593 -0.11797356 0.04558236 -0.06340696 0.099035576 1.6248555 -0.044672683 0.18867466
00000000: 2316 093b 2223 d9bd 6832 e43b 17f0 18be
00000010: 7140 ebbb 12f9 e33c 3ba0 ac3d 6b15 4d3e
00000020: ff51 ebbd 2a95 72bc c6d6 013e b7ff 7d3e
00000030: 277f 87bb 3385 f73d ebb9 cd3b 4552 e63d
00000040: 62c9 8d3b a52b 0b3e 1b33 06bf eeef ebbe
00000050: dea8 f6bd c057 e8bd 3a78 8abc b2a0 86bd
00000060: c582 03bc fbab 703e b027 123e 675d 9a3d
00000070: eb50 a5bb e537 44be 4259 a13d 9982 d7bc
00000080: 0c40 bbbc de19 2e3e 4353 c4bc 904b 02be
00000090: 714b 0ebd 14a5 86bd fa96 e7bc ee5d 0abc
000000a0: 84a5 8dbc 2199 0ebf 99d9 90bd 0efd 47bd
000000b0: 8eeb 48be 04a1 a33e b1a4 2d3e 4334 6e3e
000000c0: c08e fdbc 7014 d73d 6607 0b3c b16e f93d
000000d0: 189c e5bc 6727 cdbd e386 3fbd 9674 b4bd
000000e0: f56a 47bd ed71 363e e7e8 413e 805b bdba
000000f0: 17c8 08bd ea3e acbf faa4 5b3e b3e3 d0bd
00000100: 9149 1dbf 9b03 9fbd a994 62bd 0f9f 193e
00000110: 1627 26be 9c2d 833c c691 a5bc 605d 093e
00000120: 3b0f 533c 56cb 36bd 8308 be3c de79 7abe
00000130: b44d abbd bc70 1aba 953a cb3d 4d92 233e
00000140: 899c 293e 811c 0ebd ffe6 11bf f89b 783e
00000150: 4ba4 b83d f83d f83b 1ffe 7c3e c1a3 a2bd
00000160: ba52 053e f0c9 373e d830 d63d 6630 80bd
00000170: 01a0 e83d e9bc 0bbe 0fc6 323e 01f9 87bb
00000180: df03 13bd 169f 9f3d 5c96 583d f57f 1abd
00000190: 9e37 dd3c 5c06 81bc 5915 b9bd 050f 17bd
000001a0: cd25 233c ad43 15bf cac1 abbc ed8f d53c
000001b0: 8a50 4ebd 9077 d9be 0436 a83d df95 303e
000001c0: 6e21 a1bd dbd9 e83d b4e8 c9bd 3e72 193e
000001d0: c7eb e1bd 056b 2b3e e0e9 253d 05d3 473d
000001e0: 15de 953e 7355 d83d edbb e83d c565 fa3d
000001f0: c1e9 30bd d84c adbf 9a60 163e b86c 36bd
00000200: 360e 9a3e d431 e33c 7598 4a3e 8345 1a3e
00000210: 01bd 003e 2884 c5bb f233 b63d 1782 d93f
00000220: f783 98bd 507d 633d 3169 0fbd 9bbc 343d
00000230: a47b 0f3d b612 8f3d e07e 7bbd adc4 89bb
00000240: f481 f33d f71b a3bd 8daa a73f 0c81 943d
00000250: 7f60 723d d48c 273e addb 4b3e 906c f33d
00000260: 4580 453e 78a9 62be 9172 04bd 0c44 8b3d
00000270: 5863 783c 03e5 2fbe 952b a73b 27d7 b1bc
00000280: 7610 83bb 247f 323c b834 8e3d 91d5 00bd
00000290: 6875 a7bc 0b25 f13d b862 083d 9543 a8bd
000002a0: 2302 ab3d 9e3d 723e 7ed5 e9bc c32e 70bd
000002b0: f97e af3d 9298 633a d91a 0f3e 5521 043e
000002c0: 2ffc 23bd 1822 323d 51d2 e2bc 895c 1abc
000002d0: ee19 163c e6c9 97bd a40e 9dbc da81 00bd
000002e0: 1bfe 483d 9b91 5c3e 83f0 cb3d a3d7 1d3e
000002f0: 5148 183e 5bf0 babb ff13 073e e176 073e
00000300: 9cae 5b3e d9cb 15bd a42d babd 6596 04bd
00000310: 11eb 5b3e d55f c03c 3a18 e93d d00b c1be
00000320: fa23 243d 098d babb c746 38be 0764 953e
00000330: 871a c73d d4b2 963c 3b0e de3d ad54 5ebe
00000340: 7458 e8bb dfff 02be 3efe 86bc 6f40 9cbe
00000350: d1ea 183e a2b6 20be 39dd e7bc ed04 963c
00000360: 99a4 2bbe b4a8 f2bd 299b bcbd 428e d0bc
00000370: 35fc 69be a9f2 d93d b247 94bd 2141 2bbd
00000380: 8aa4 813d 6c7d 82be b16a 9dbd 1780 8ebd
00000390: 17cd 23be 6e41 333d 88d6 b13d c1d5 8c3e
000003a0: 8805 61bd c531 103f 749f a53d 92e3 2cbd
000003b0: c1d3 f1bd 55ec 85bd c167 83bd 5cc1 dbbd
000003c0: 03fa e23d 257e 45bd 2fda 923c 9018 38be
000003d0: dce1 3abd b6f3 0dbe 6359 45bd 550f 133d
000003e0: 0146 b13d 1f9c f1bd 92b4 3a3d 82db 81bd
000003f0: 2ad3 ca3d 44fb cf3f b4fa 36bd ee33 413e

nodenetwork.nn.2.bias f4 [32]
0.00023463728 0.0003552931 -0.0020932243 -0.0005017839 -0.0018457123 -0.0017055856 0.009392314 -0.019095056
-0.011330366 5.9753987e-05 -0.0013680222 -0.0030501399 -0.0009129556 0.0020444875 0.00039385117 -0.0034576603
0.003112132 0.00028923372 0.0051145735 0.0020080348 0.0009182497 -0.0021815323 -0.0018170628 -0.0022521005
-0.0034871073 0.0021012318 0.0027696383 -0.003289523 -0.0011407167 0.0014278672 -4.2765965e-05 0.00045610828
00000000: f708 7639 a246 ba39 7a2e 09bb 268a 03ba
00000010: d4eb f1ba f58d dfba 38e2 193c 3c6d 9cbc
00000020: 00a3 39bc 5ba0 7a38 354f b3ba dbe4 47bb
00000030: 6a53 6fba cffc 053b cf7d ce39 ea99 62bb
00000040: e9f4 4b3b 4ba4 9739 2798 a73b 3c99 033b
00000050: b2b6 703a 0af8 0ebb 832a eeba fa97 13bb
00000060: f487 64bb d2b4 093b d282 353b 0a95 57bb
00000070: 1a84 95ba 4627 bb3a 9b5f 33b8 d121 ef39
